Bottleneck: 200
Learning Rate: 0.00001
Batch Size: 300
Starttime: 2020-08-05 19:56:49.943905

Encoder Model: (models\conv_1.8.2020\models\170_modelConvEncoder)
_________________________________________________________________
Layer (type)                 Output Shape              Param #   
=================================================================
input_1 (InputLayer)         (None, 64, 64, 3)         0         
_________________________________________________________________
conv2d_1 (Conv2D)            (None, 64, 64, 120)       3360      
_________________________________________________________________
max_pooling2d_1 (MaxPooling2 (None, 32, 32, 120)       0         
_________________________________________________________________
conv2d_2 (Conv2D)            (None, 32, 32, 160)       172960    
_________________________________________________________________
max_pooling2d_2 (MaxPooling2 (None, 16, 16, 160)       0         
_________________________________________________________________
conv2d_3 (Conv2D)            (None, 16, 16, 200)       288200    
_________________________________________________________________
max_pooling2d_3 (MaxPooling2 (None, 8, 8, 200)         0         
_________________________________________________________________
conv2d_4 (Conv2D)            (None, 8, 8, 240)         432240    
_________________________________________________________________
max_pooling2d_4 (MaxPooling2 (None, 4, 4, 240)         0         
_________________________________________________________________
reshape_1 (Reshape)          (None, 3840)              0         
=================================================================
Total params: 896,760
Trainable params: 896,760
Non-trainable params: 0
_________________________________________________________________

Decoder Model:
_________________________________________________________________
Layer (type)                 Output Shape              Param #   
=================================================================
input_1 (InputLayer)         (None, 200)               0         
_________________________________________________________________
dense_1 (Dense)              (None, 600)               120600    
_________________________________________________________________
dense_2 (Dense)              (None, 1000)              601000    
_________________________________________________________________
dropout_1 (Dropout)          (None, 1000)              0         
_________________________________________________________________
dense_3 (Dense)              (None, 2000)              2002000   
_________________________________________________________________
dense_4 (Dense)              (None, 4000)              8004000   
_________________________________________________________________
dropout_2 (Dropout)          (None, 4000)              0         
_________________________________________________________________
dense_5 (Dense)              (None, 8000)              32008000  
_________________________________________________________________
dropout_3 (Dropout)          (None, 8000)              0         
_________________________________________________________________
dense_6 (Dense)              (None, 12288)             98316288  
=================================================================
Total params: 141,051,888
Trainable params: 141,051,888
Non-trainable params: 0
_________________________________________________________________
Training Set: 18500
Validation Set: 3148